trained_classifier.pth (torch, 13351 bytes, 2 tensors)

fc.weight f4 [4, 768]
000000 b1 58 18 3d 4c 87 39 bb 68 00 ff 3a 48 4e 5b bc
       0.037193958 -0.0028309403 0.0019455077 -0.013385363
000010 b9 02 23 3b 13 62 a4 3c cd 4d fb bc 33 4f 51 bd
       0.002487345 0.020066297 -0.030676747 -0.05110092
000020 0a cb 17 3d 58 4e 7b 3b 24 18 ae 3b ee 9d f6 bc
       0.037058868 0.0038346257 0.0053129364 -0.030104604
000030 67 eb 74 bd 6e 50 ae 3a 3f 6a 35 bc 41 b3 25 bd
       -0.05979481 0.0013299116 -0.011072694 -0.040454153
000040 60 e0 2b 3d ba a2 11 3d 82 3e 37 3b f7 28 46 bc
       0.041962028 0.03555558 0.0027960842 -0.012094728
000050 16 3a 4e bb cf 3d d4 bc ae b4 05 3c 57 02 7c 39
       -0.0031467727 -0.025908379 0.008160753 0.00024033464
000060 48 9b 6b 3c a9 66 f2 bc f7 c3 9d bc 57 d5 ce 3b
       0.014380284 -0.029589968 -0.019258482 0.006312053
000070 4b 96 13 bd 4f 1e 8e bc 49 8f 3c bd 47 be 58 bc
       -0.036032002 -0.017348437 -0.046035085 -0.013228959
000080 4c 28 56 3a cd 10 bc 3c 91 85 17 3d 0f 54 1e 3c
       0.0008169457 0.02295723 0.036992613 0.009663596
000090 79 c3 24 3b 48 43 e6 bc ea 56 83 3c ea d8 4e bc
       0.0025140925 -0.028108254 0.016032655 -0.0126249585
0000a0 da 94 e4 3b 95 81 ca 3b 6c 19 16 bc 1d 6a 3d bd
       0.0069757523 0.006179998 -0.0091613345 -0.046243776
0000b0 44 b0 7a bc 58 67 d7 3c 1b b3 0f bd 95 9e 9b bc
       -0.015300814 0.026294395 -0.035082918 -0.018996516
0000c0 f0 45 9c bb c4 ae a5 bc fd 7d e1 bc 96 89 23 bd
       -0.0047690794 -0.020224936 -0.027525896 -0.039926134
0000d0 45 7c c8 3b f4 6d 8d bc 80 31 b1 bc 50 f4 5c 3c
       0.0061183297 -0.017264344 -0.021630049 0.013485983
0000e0 0e de f7 bc a5 8f 14 bc f9 96 61 bc 17 56 3c 3d
       -0.030257251 -0.009067451 -0.013768905 0.04598054
0000f0 fc 1a 15 3d da af 74 bc 6f 87 46 bc 9a 49 67 3c
       0.036402687 -0.014934504 -0.012117251 0.014116669
000100 37 40 60 3b 12 33 25 bc 7f d3 c6 bc e1 10 8e 3c
       0.0034217963 -0.010082977 -0.024270771 0.017342033
000110 86 f2 9c 3c 57 3f 55 bc c7 9f 5e 3d d4 ae ac 3c
       0.019158613 -0.01301559 0.054351594 0.021079458
000120 d5 68 17 bd 01 4d 20 bd bb 14 dd bc 17 58 ac 3a
       -0.03696521 -0.039135937 -0.026987424 0.0013148811
000130 df 4a 2a bd 61 98 0b bc 0d d7 78 3c 25 3d f7 bc
       -0.04157531 -0.008520217 0.015187991 -0.030180523
000140 d7 d7 96 3b ec d6 c4 b9 0b 51 91 3c c1 c2 1f bd
       0.004603367 -0.00037544162 0.01773884 -0.03900409
000150 48 db cc bc 1a a0 39 3c d6 6f 39 3d 31 a1 b8 3c
       -0.025006905 0.011329675 0.04527267 0.0225378
000160 13 ce d6 3c c5 24 05 bc dd b5 a5 3c 22 85 6a bc
       0.02622131 -0.008126442 0.02022832 -0.014313968
000170 36 36 db bc 64 ae 47 ba f6 f2 cf 3c 26 be a5 bc
       -0.026759248 -0.0007617234 0.025384407 -0.020232271
000180 3d f2 14 bd 40 07 99 3b f3 32 04 bc c5 6f 12 bd
       -0.03636383 0.0046700537 -0.008068788 -0.035751123
000190 62 85 93 3c 32 65 1f 3d 8a 51 61 3d da b8 7d bc
       0.018007938 0.038914867 0.055009402 -0.015485967
0001a0 9f 18 18 3d 24 4f a6 bc fe dd 84 3c 93 b9 b3 bc
       0.037132856 -0.020301409 0.016219135 -0.021939075
0001b0 e7 d0 10 bd 5e 46 a7 3c d8 eb 43 bd 8c ce a8 3c
       -0.035355475 0.020419296 -0.04783234 0.020606302
0001c0 fe c2 35 bc 11 3f 73 bc 81 5a 29 bd 34 20 14 bd
       -0.011093853 -0.014846579 -0.041346077 -0.036163524
0001d0 a7 a3 9a bc 42 18 8d bc ae e9 57 3d 9f 26 8f bc
       -0.018876864 -0.017223481 0.05271309 -0.01747447
0001e0 08 39 e6 bc a1 5d a0 ba bf e1 16 3d c6 a6 d1 3c
       -0.028103366 -0.0012234935 0.036836382 0.02559222
0001f0 29 c6 ec bc f5 b9 89 3b 5d 07 b1 3c 90 91 84 3a
       -0.028903084 0.004203076 0.021609956 0.0010114182
000200 29 45 01 bc 40 2c 21 bd 2f 4f 1d 3d dc a6 36 3d
       -0.007890024 -0.03934884 0.038405593 0.044592723
000210 88 3a 21 bc 4f 33 cb 3b 4a ab 15 3d 1f 75 ab 3c
       -0.009840615 0.006201185 0.036540307 0.020929871
000220 40 f3 f3 bb f3 0a de 3b da 45 d1 3b 3a ab 59 bc
       -0.007444769 0.0067762076 0.006386501 -0.0132854525
000230 3d f9 0a bd a9 c1 84 bc f4 ba 04 3b 8a e4 a0 3c
       -0.0339291 -0.016205626 0.0020253034 0.019640226
000240 1a bb 61 bc fe af 98 3c ca 34 1d 3c 02 1e cb bc
       -0.013777519 0.018638607 0.009595105 -0.024794582
000250 52 a6 84 3b 41 c4 37 3c 8c de 8b bb 41 e5 d0 bc
       0.0040481472 0.011216224 -0.004268473 -0.025499942
000260 98 8c 4d bd e7 99 39 bd 9b 73 86 bc eb 01 97 3c
       -0.05018291 -0.04531279 -0.016412547 0.018433532
000270 3d b6 6a 3c 1f 93 c1 3c 64 92 1b 3d 78 7e d6 bc
       0.014325676 0.023629723 0.037981406 -0.026183352
000280 18 b6 40 bd a6 a5 40 bd a9 25 8d 3d 1c 84 01 bd
       -0.047048658 -0.047032975 0.06891949 -0.03162013
000290 67 7c 6e 3b a6 c7 2b 3d ec 41 4f 3c f3 70 10 3d
       0.0036390068 0.041938446 0.012649994 0.035263967
0002a0 04 35 07 3c f3 4f 35 3d 31 de 0c bd 46 1e a3 bc
       0.008252386 0.0442657 -0.034391586 -0.019911896
0002b0 96 6d a1 3c be e5 e5 3c e2 cf 36 bd f8 4f d7 3a
       0.019705575 0.028063651 -0.044631846 0.0016427031
0002c0 02 39 0d 3d a8 99 b9 bc 9b ba ec bc 53 f4 24 bd
       0.034478195 -0.022656277 -0.028897574 -0.04027207
0002d0 a7 9a 92 bc f9 31 79 3c f1 b7 12 3c e1 a0 6e bd
       -0.01789601 0.015209668 0.008954988 -0.058258895
0002e0 58 4c b2 3c ab 84 88 3d 4e 04 54 bc 0b 5d 96 bc
       0.02176492 0.066659294 -0.012940479 -0.018354913
0002f0 59 a7 b1 3c c7 4b bd 3a df b4 ae bb 78 1a a5 3c
       0.021686243 0.0014442139 -0.00533162 0.020154223
000300 a5 9d 78 bb 2c 34 78 3b 15 6f 74 bc e4 e9 f9 3b
       -0.003793576 0.0037872894 -0.014919062 0.007626759
000310 a0 14 88 bc 1a b6 05 3d 46 d7 f7 3b 94 b9 dd bb
       -0.016611397 0.03264437 0.0075635044 -0.0067665074
000320 1f 08 6a 3c 8d 26 1a bd 44 e3 50 3c a2 91 c1 bb
       0.014284163 -0.03763442 0.012749497 -0.0059072534
000330 8f b9 02 3d 5d 6e a0 3c aa 86 70 3c 87 25 e7 bc
       0.031915244 0.019583875 0.014680544 -0.028216137
000340 af e7 5b bc 2f 5d b9 bc da 6f 58 bc 19 cb 18 bd
       -0.013421937 -0.022627441 -0.013210261 -0.037303064
000350 b0 72 49 bb 3a a6 a2 3c f9 e0 79 3c 25 4c 98 bc
       -0.0030738525 0.019854654 0.015251392 -0.018590996
000360 1c ff 23 3c 51 55 cd 3c 28 cd b6 3c 5d 6c 99 3c
       0.010009553 0.025065096 0.022314623 0.01872843
000370 77 03 13 3c b4 f5 85 3c cd 51 6f 3b 56 53 87 3c
       0.008972994 0.016352512 0.0036517263 0.01651923
000380 a3 b6 fe 3c 4c a2 25 3d c2 83 aa bc 37 03 b4 bb
       0.031092947 0.04043798 -0.02081478 -0.0054935473
000390 b1 1f 57 3c b4 53 59 bc 94 89 94 3b 1b 24 57 3c
       0.013130114 -0.013264585 0.004533002 0.013131167
0003a0 65 24 a8 bc e9 c5 bb 3a 53 08 57 bd 95 24 d2 bc
       -0.020525167 0.001432595 -0.052498173 -0.02565221
0003b0 ed 20 40 3d 40 7d 80 bd 50 f0 13 3c 47 00 22 bd
       0.0469064 -0.062738895 0.009029463 -0.039551046
0003c0 77 13 84 bc 55 0b da bb 81 08 ba bc 0a 5b 9e 3c
       -0.016122563 -0.006654183 -0.022709133 0.01933052
0003d0 57 64 e5 3c b2 b9 af 3a 24 5c 0a 3c 82 e8 0a bd
       0.028001947 0.0013406782 0.00844482 -0.033913143
0003e0 e5 21 76 bc 9c 81 30 bd f6 c8 e2 3b 1c d3 80 3c
       -0.0150227295 -0.043092355 0.006920929 0.015725665
0003f0 cb b7 64 3b 6b 54 5f 3c bb 26 e4 bc 00 d6 8b bc
       0.0034899588 0.013630967 -0.0278505 -0.017069817

fc.bias f4 [4]
000000 7b 3b d0 3c 12 b3 04 3d 84 4f b4 3c 14 87 9b 3c
       0.025418987 0.032397337 0.022010572 0.018985309
